…
[03/05 17:15:32][INFO] uniformerv2_model.py: 139: Drop path rate: 0.0
[03/05 17:15:32][INFO] uniformerv2_model.py: 139: Drop path rate: 0.0
[03/05 17:15:32][INFO] uniformerv2_model.py: 139: Drop path rate: 0.0
[03/05 17:15:32][INFO] uniformerv2_model.py: 139: Drop path rate: 0.0
[03/05 17:15:32][INFO] uniformerv2_model.py: 398: load pretrained weights
[03/05 17:15:32][INFO] uniformerv2_model.py: 353: Inflate: conv1.weight, torch.Size([768, 3, 16, 16]) => torch.Size([768, 3, 1, 16, 16])
[03/05 17:15:32][INFO] uniformerv2_model.py: 334: Init center: True
[03/05 17:15:33][INFO] misc.py: 183: Model:
Uniformerv2(
  (backbone): VisionTransformer(
    (conv1): Conv3d(3, 768, kernel_size=(1, 16, 16), stride=(1, 16, 16), bias=False)
    (ln_pre): LayerNorm((768,), eps=1e-05, elementwise_affine=True)
    (transformer): Transformer(
      (resblocks): ModuleList(
        (0-11): 12 x ResidualAttentionBlock(
          (drop_path): Identity()
          (attn): MultiheadAttention(
            (out_proj): NonDynamicallyQuantizableLinear(in_features=768, out_features=768, bias=True)
          )
          (ln_1): LayerNorm((768,), eps=1e-05, elementwise_affine=True)
          (mlp): Sequential(
            (c_fc): Linear(in_features=768, out_features=3072, bias=True)
            (gelu): QuickGELU()
            (c_proj): Linear(in_features=3072, out_features=768, bias=True)
          )
          (ln_2): LayerNorm((768,), eps=1e-05, elementwise_affine=True)
        )
      )
      (dpe): ModuleList(
        (0-3): 4 x Conv3d(768, 768, kernel_size=(3, 3, 3), stride=(1, 1, 1), padding=(1, 1, 1), groups=768)
      )
      (dec): ModuleList(
        (0-3): 4 x Extractor(
          (drop_path): Identity()
          (attn): MultiheadAttention(
            (out_proj): NonDynamicallyQuantizableLinear(in_features=768, out_features=768, bias=True)
          )
          (ln_1): LayerNorm((768,), eps=1e-05, elementwise_affine=True)
          (mlp): Sequential(
            (c_fc): Linear(in_features=768, out_features=3072, bias=True)
            (gelu): QuickGELU()
            (dropout): Dropout(p=0.5, inplace=False)
            (c_proj): Linear(in_features=3072, out_features=768, bias=True)
          )
          (ln_2): LayerNorm((768,), eps=1e-05, elementwise_affine=True)
          (ln_3): LayerNorm((768,), eps=1e-05, elementwise_affine=True)
        )
      )
      (proj): Sequential(
        (0): LayerNorm((768,), eps=1e-05, elementwise_affine=True)
        (1): Dropout(p=0.5, inplace=False)
        (2): Linear(in_features=768, out_features=400, bias=True)
      )
      (sigmoid): Sigmoid()
    )
  )
)
[03/05 17:15:33][INFO] misc.py: 184: Params: 114,552,208
[03/05 17:15:33][INFO] misc.py: 185: Mem: 0.4275493621826172 MB
[03/05 17:18:24][INFO] train_net.py: 411: Train with config:
[03/05 17:18:24][INFO] train_net.py: 412: CfgNode({'BN': CfgNode({'USE_PRECISE_STATS': False, 'NUM_BATCHES_PRECISE': 200, 'WE
…
[03/06 18:47:12][INFO] uniformerv2_model.py: 139: Drop path rate: 0.0
[03/06 18:47:13][INFO] uniformerv2_model.py: 139: Drop path rate: 0.0
[03/06 18:47:13][INFO] uniformerv2_model.py: 139: Drop path rate: 0.0
[03/06 18:47:13][INFO] uniformerv2_model.py: 398: load pretrained weights
[03/06 18:47:13][INFO] uniformerv2_model.py: 353: Inflate: conv1.weight, torch.Size([768, 3, 16, 16]) => torch.Size([768, 3, 1, 16, 16])
[03/06 18:47:13][INFO] uniformerv2_model.py: 334: Init center: True
[03/06 18:47:14][INFO] misc.py: 184: Model:
DistributedDataParallel(
  (module): Uniformerv2(
    (backbone): VisionTransformer(
      (conv1): Conv3d(3, 768, kernel_size=(1, 16, 16), stride=(1, 16, 16), bias=False)
      (ln_pre): LayerNorm((768,), eps=1e-05, elementwise_affine=True)
      (transformer): Transformer(
        (resblocks): ModuleList(
          (0-11): 12 x ResidualAttentionBlock(
            (drop_path): Identity()
            (attn): MultiheadAttention(
              (out_proj): NonDynamicallyQuantizableLinear(in_features=768, out_features=768, bias=True)
            )
            (ln_1): LayerNorm((768,), eps=1e-05, elementwise_affine=True)
            (mlp): Sequential(
              (c_fc): Linear(in_features=768, out_features=3072, bias=True)
              (gelu): QuickGELU()
              (c_proj): Linear(in_features=3072, out_features=768, bias=True)
            )
            (ln_2): LayerNorm((768,), eps=1e-05, elementwise_affine=True)
          )
        )
        (dpe): ModuleList(
          (0-3): 4 x Conv3d(768, 768, kernel_size=(3, 3, 3), stride=(1, 1, 1), padding=(1, 1, 1), groups=768)
        )
        (dec): ModuleList(
          (0-3): 4 x Extractor(
            (drop_path): Identity()
            (attn): MultiheadAttention(
              (out_proj): NonDynamicallyQuantizableLinear(in_features=768, out_features=768, bias=True)
            )
            (ln_1): LayerNorm((768,), eps=1e-05, elementwise_affine=True)
            (mlp): Sequential(
              (c_fc): Linear(in_features=768, out_features=3072, bias=True)
              (gelu): QuickGELU()
              (dropout): Dropout(p=0.5, inplace=False)
              (c_proj): Linear(in_features=3072, out_features=768, bias=True)
            )
            (ln_2): LayerNorm((768,), eps=1e-05, elementwise_affine=True)
            (ln_3): LayerNorm((768,), eps=1e-05, elementwise_affine=True)
          )
        )
        (proj): Sequential(
          (0): LayerNorm((768,), eps=1e-05, elementwise_affine=True)
          (1): Dropout(p=0.5, inplace=False)
          (2): Linear(in_features=768, out_features=140, bias=True)
        )
        (sigmoid): Sigmoid()
      )
    )
  )
)
[03/06 18:47:14][INFO] misc.py: 185: Params: 114,352,268
[03/06 18:47:14][INFO] misc.py: 186: Mem: 0.8526897430419922 MB
[03/06 18:47:14][INFO] misc.py: 187: Flops: 0 G
[03/06 18:47:14][INFO] misc.py: 192: Activations: 0 M
[03/06 18:47:14][INFO] misc.py: 197: nvidia-smi
[03/06 18:47:15][INFO] optimizer.py:  71: bn 0, non bn 72, zero 147
…
[03/07 18:43:52][INFO] uniformerv2_model.py: 139: Drop path rate: 0.0
[03/07 18:43:52][INFO] uniformerv2_model.py: 139: Drop path rate: 0.0
[03/07 18:43:52][INFO] uniformerv2_model.py: 139: Drop path rate: 0.0
[03/07 18:43:52][INFO] uniformerv2_model.py: 398: load pretrained weights
[03/07 18:43:52][INFO] uniformerv2_model.py: 353: Inflate: conv1.weight, torch.Size([768, 3, 16, 16]) => torch.Size([768, 3, 1, 16, 16])
[03/07 18:43:52][INFO] uniformerv2_model.py: 334: Init center: True
[03/07 18:43:53][INFO] misc.py: 184: Model:
DistributedDataParallel(
  (module): Uniformerv2(
    (backbone): VisionTransformer(
      (conv1): Conv3d(3, 768, kernel_size=(1, 16, 16), stride=(1, 16, 16), bias=False)
      (ln_pre): LayerNorm((768,), eps=1e-05, elementwise_affine=True)
      (transformer): Transformer(
        (resblocks): ModuleList(
          (0-11): 12 x ResidualAttentionBlock(
            (drop_path): Identity()
            (lmhra1): Local_MHRA(
              (pos_embed): Sequential(
                (0): BatchNorm3d(768, eps=1e-05, momentum=0.1, affine=True, track_running_stats=True)
                (1): Conv3d(768, 512, kernel_size=(1, 1, 1), stride=(1, 1, 1))
                (2): Conv3d(512, 512, kernel_size=(3, 1, 1), stride=(1, 1, 1), padding=(1, 0, 0), groups=512)
                (3): Conv3d(512, 768, kernel_size=(1, 1, 1), stride=(1, 1, 1))
              )
            )
            (lmhra2): Local_MHRA(
              (pos_embed): Sequential(
                (0): BatchNorm3d(768, eps=1e-05, momentum=0.1, affine=True, track_running_stats=True)
                (1): Conv3d(768, 512, kernel_size=(1, 1, 1), stride=(1, 1, 1))
                (2): Conv3d(512, 512, kernel_size=(3, 1, 1), stride=(1, 1, 1), padding=(1, 0, 0), groups=512)
                (3): Conv3d(512, 768, kernel_size=(1, 1, 1), stride=(1, 1, 1))
              )
            )
            (attn): MultiheadAttention(
              (out_proj): NonDynamicallyQuantizableLinear(in_features=768, out_features=768, bias=True)
            )
            (ln_1): LayerNorm((768,), eps=1e-05, elementwise_affine=True)
            (mlp): Sequential(
              (c_fc): Linear(in_features=768, out_features=3072, bias=True)
              (gelu): QuickGELU()
              (c_proj): Linear(in_features=3072, out_features=768, bias=True)
            )
            (ln_2): LayerNorm((768,), eps=1e-05, elementwise_affine=True)
          )
        )
        (dpe): ModuleList(
          (0-3): 4 x Conv3d(768, 768, kernel_size=(3, 3, 3), stride=(1, 1, 1), padding=(1, 1, 1), groups=768)
        )
        (dec): ModuleList(
          (0-3): 4 x Extractor(
            (drop_path): Identity()
            (attn): MultiheadAttention(
              (out_proj): NonDynamicallyQuantizableLinear(in_features=768, out_features=768, bias=True)
            )
            (ln_1): LayerNorm((768,), eps=1e-05, elementwise_affine=True)
            (mlp): Sequential(
              (c_fc): Linear(in_features=768, out_features=3072, bias=True)
              (gelu): QuickGELU()
              (dropout): Dropout(p=0.5, inplace=False)
              (c_proj): Linear(in_features=3072, out_features=768, bias=True)
            )
            (ln_2): LayerNorm((768,), eps=1e-05, elementwise_affine=True)
            (ln_3): LayerNorm((768,), eps=1e-05, elementwise_affine=True)
          )
        )
        (proj): Sequential(
          (0): LayerNorm((768,), eps=1e-05, elementwise_affine=True)
          (1): Dropout(p=0.5, inplace=False)
          (2): Linear(in_features=768, out_features=140, bias=True)
        )
        (sigmoid): Sigmoid()
      )
    )
  )
)
[03/07 18:43:53][INFO] misc.py: 185: Params: 133,343,372
[03/07 18:43:53][INFO] misc.py: 186: Mem: 0.9990062713623047 MB
[03/07 18:43:53][INFO] misc.py: 187: Flops: 0 G
[03/07 18:43:53][INFO] misc.py: 192: Activations: 0 M
[03/07 18:43:53][INFO] misc.py: 197: nvidia-smi
[03/07 18:43:54][INFO] optimizer.py:  71: bn 48, non bn 144, zero 219
…
